unsorted/model_v2_epoch50_alldata.pth (torch, 17074 bytes, 5 tensors)

linear1.weight f4 [40, 4]
00000000: 4ae8 833e 54fc 61be a083 c6bd 2051 703e
00000010: 0202 f1be 1287 993e a8a9 d2bd 0a3d 823e
00000020: 785a 8e3d 00c4 7abd 4002 0e3e 2010 ca3c
00000030: 30ff 3a3e e486 47be 3051 15bd 4060 38bd
00000040: 306c 943d 00e7 02bb 64c9 df3e 5054 1f3e
00000050: 08ac 3ebe 369d 9abe 70a3 abbd b0d8 5cbe
00000060: d411 24be 801f c43c d49b 983e 3825 8b3e
00000070: c640 fabe 1cb3 9e3e c808 0f3e 88d4 f23e
00000080: aef9 a83e 5240 e9be 2e68 f3be 3cf4 76be
00000090: eecb e03e 1091 aabd 801d 5b3e a8ee 6dbe
000000a0: 1a31 fb3e 5ca0 58be 12fb bf3e 8003 c23b
000000b0: 82dd 86be 7a96 833e d4e3 87be e494 163e
000000c0: fcd7 13be 0088 60bd 881d f6be bc1c 74be
000000d0: 10ea 8a3e 40e9 f8bd 1afd fe3e e634 cd3e
000000e0: 20ca bfbc 2ce0 aabe f2e4 9b3e 20e7 1e3e
000000f0: c47b a5be 8e48 a63e 066b 9b3e 8c0b e33e
00000100: d680 8fbe 788e a8bd c0b1 1ebc 1890 953d
00000110: 7848 c2be d0a9 b5be e243 8b3e a81e f0bd
00000120: 3019 7a3e 4083 e93c d01c 283e 802a e13d
00000130: b429 3a3e cccd 7d3e ae15 edbe a4db 803e
00000140: e2ff b3be 8027 c1be 8018 f93c 387f aebd
00000150: de5a 963e 3c42 94be 5294 e3be 0e4f ba3e
00000160: 30d7 97bd 32fd 8f3e a099 243e d4f7 bfbe
00000170: 48b8 cd3d 18f6 f53d 3268 abbe 08ee 72be
00000180: 5c94 2e3e e86b b73d 70ca 59be 94fd 1abe
00000190: 4a77 ea3e 3876 bdbd a654 903e 98b2 5d3e
000001a0: f07a a5be c0b5 d9be 44bb f53e 40e1 d53c
000001b0: 2e7a af3e 7834 d43d bcab 243e ae38 bf3e
000001c0: 32be f23e 72e0 a9be 9807 803d b80a bf3e
000001d0: 9474 b93e 7c09 9f3e a445 b9be c058 b8be
000001e0: 50d2 9abe b8a4 803d 6e25 ff3e 7eb5 a1be
000001f0: e26a 883e 66b1 8dbe fab1 f0be 00a4 d9bd
00000200: f07f 933e faa9 ed3e 66fc 9ebe 3038 de3d
00000210: 68e4 dc3e aaa3 a93e 8c8b 9f3e 04ec b53e
00000220: 98ec a13e 6c3f 043e d60e afbe 6afa d6be
00000230: e49b 6abe 307b 6ebd 70ea 9cbe 2c51 3b3e
00000240: 3075 1e3e a8de e7bd 50c8 443e 7878 253e
00000250: 484c 9c3e ce66 ac3e e463 2dbe 5a1e fa3e
00000260: c0c3 6cbd e0b8 8cbc 20a2 f1be 08c4 a4be
00000270: 5c8e 95be 80fe 5abe 1a02 b63e d84f 27be
0.2576316 -0.22068912 -0.09693074 0.23468447 -0.47071844 0.29985863 -0.102862656 0.25437194
0.06950849 -0.061222076 0.13868046 0.024665892 0.18261409 -0.1948505 -0.03645438 -0.045013666
0.07247198 -0.0019974113 0.43708336 0.15559506 -0.18620312 -0.30198067 -0.083807826 -0.21567035
-0.16022426 0.023940802 0.29806387 0.27176833 -0.48877543 0.30996025 0.13968194 0.47427773
0.3300299 -0.45556885 -0.4754042 -0.24116606 0.43905586 -0.0832845 0.21397972 -0.23235571
0.490609 -0.21154922 0.3749624 0.0059208274 -0.26340872 0.25700742 -0.26541007 0.14705235
-0.1443786 -0.0548172 -0.48069406 -0.23839086 0.271317 -0.12153864 0.49802476 0.4007942
-0.02341181 -0.33374155 0.3044811 0.15517855 -0.32320988 0.3247723 0.3035509 0.44344747
-0.28027982 -0.08230299 -0.009685934 0.07302874 -0.37945914 -0.3548112 0.27200228 -0.11724597
0.24423671 0.028504968 0.16417241 0.10994434 0.18179971 0.24785537 -0.46305603 0.25167572
-0.3515616 -0.3772545 0.03040719 -0.08520359 0.293662 -0.28956783 -0.44449097 0.3638844
-0.07414091 0.2812286 0.16074228 -0.37493765 0.100449145 0.12009829 -0.33477932 -0.23723614
0.17048782 0.08956128 -0.2126863 -0.15135795 0.45794135 -0.09251064 0.28189582 0.2165016
-0.32320356 -0.42521477 0.47994435 0.026108384 0.34272903 0.1036157 0.16081136 0.3734793
0.47410733 -0.3317905 0.062514484 0.37312865 0.36221755 0.31061924 -0.36185944 -0.3600521
-0.3023858 0.062814176 0.49833244 -0.3158378 0.26644045 -0.27674407 -0.47010785 -0.10626984
0.28808546 0.46418744 -0.3105194 0.10850561 0.4314301 0.33132678 0.31161153 0.35531628
0.3162582 0.12914819 -0.34191006 -0.41987926 -0.2291103 -0.05822295 -0.30647612 0.18292683
0.15474391 -0.11321765 0.19217038 0.16159236 0.30526948 0.33672184 -0.16932636 0.4885128
-0.05780387 -0.017177999 -0.47194004 -0.3218081 -0.29210174 -0.21386147 0.35548478 -0.16339052

linear1.bias f4 [40]
00000000: d24d bfbe f0fd 443e 44ed 233e 0ecf a53e
00000010: 0e79 84be c004 de3d d864 3abe 2011 e6bd
00000020: d802 ccbe 8059 69be d0cd 1cbe 04f3 5a3e
00000030: f012 bb3d e0f1 fc3d d283 ff3e 3081 f93e
00000040: a49a ae3e 606e 823c 3e19 b1be 0411 c83e
00000050: 5008 00be 4092 25bd 328b dcbe f044 cabd
00000060: ec1d a5be 6c3d eb3e 4051 ddbe 2e8c c7be
00000070: c015 8bbc 546c 8abe 1833 373e f814 45be
00000080: e47a 70be e0fc e73c 6051 b93e 9413 b4be
00000090: 3c70 703e 0a77 a43e 226b fa3e ac2e b3be
-0.3736406 0.19237494 0.16008478 0.32384533 -0.25873607 0.1084075 -0.18202531 -0.11233735
-0.3984592 -0.22788048 -0.15312886 0.21381766 0.091344714 0.123508215 0.49905258 0.48731375
0.34102356 0.015921772 -0.3458957 0.39075482 -0.12503171 -0.040422678 -0.43074948 -0.0987643
-0.3224939 0.459453 -0.4322605 -0.38974136 -0.016978145 -0.27035773 0.17890584 -0.1924628
-0.23484379 0.028318822 0.36194897 -0.35171187 0.23480314 0.3212207 0.4890986 -0.34996545

linear2.weight f4 [80, 40]
00000000: bbd9 1c3d 6c70 efbd c23a 0a3e b438 7bbd
00000010: 5d0d c33d 853f 9a3b 09c2 49bc 1451 a5bb
00000020: 4530 dc3c 6ca5 983d 2ebc cf3c 6790 453d
00000030: 0ba4 11be b9e9 eb3d 8c29 0d3e a8d5 053e
00000040: 7f5f ef3d 3bad e9bd fe13 70bd 49c2 0e3e
00000050: 5fa3 f6bd 0ee3 123e 54ae febd 8119 e4bd
00000060: a04e 9e3d bda8 e8bd 9e5f 14bd 0c93 eb3d
00000070: fb3e 003e 4120 193e 956a 03bd c0b0 fbbd
00000080: c06a 1f3e 8df6 09bd d33a 85bd 57e0 1d3d
00000090: 0d74 e2bd b2d6 d43d 65f2 ca3d b178 00be
000000a0: bdfc 04be fdeb 62bc f102 883d 150e 96bb
000000b0: 5133 a4bd 6de7 6c3b e12e 18be 84dc e4bd
000000c0: ca8f d7bd 2f56 053e 30b9 0e3e d9fa 5bbd
000000d0: 815f e83b 546a 903d 1b32 9b3c fe26 a2bd
000000e0: 00c2 ba3d c00f c73d cc22 16bc 6e73 9fbc
000000f0: 3822 133e 6c87 0d3e ea98 b7bd cd68 1e3e
00000100: 9045 203d 5f19 d7bd f842 b13d f2c0 f1bd
00000110: 8e97 153e e32c d0bd 4d2b 373d 7034 453d
00000120: 850b 1a3d 654a 063e 507f 86bd bdb4 88bd
00000130: 2d4e 0cbe 3ca1 d4bb 1d66 99bd 079a cf3b
00000140: 9bc3 04bd 8ae1 563d 3510 0c3e 501a 3f3d
00000150: 0da1 50bd 59e5 9ebd 8735 0dbe cd3c 083e
00000160: 3c60 f5bc 72ba 023d 5fa7 bf3b ab5b cebd
00000170: 2b5e b63d 2679 b53d 9b75 023c 9105 b8bd
00000180: 9397 89bd a2b2 0e3b 4302 b9bd 2fad b4bd
00000190: 2236 c1bc 927c 3abd 58fb 1e3d 523a 2abd
000001a0: 73b4 abbc ac30 77bd 3ff6 13be 7234 0d3e
000001b0: 491d f73c 5cc8 103e 36bf d0bc 45c2 22bd
000001c0: 1736 18be 54d9 75bd ab59 d43d a794 1ebe
000001d0: 2885 62bd e449 c53d 6ca1 ba3d cf22 6f3d
000001e0: 3232 00bd f024 44bc fdfa f5bc 87be 6ebd
000001f0: 0a23 873d 0f96 5cbd 0bea b5bd 31ec 123d
00000200: 990e eabd fb36 0abd 9b79 a53d 430a 723d
00000210: c7d6 093e cbdb dcbd 2530 b43a 8c3f 3fbd
00000220: cd1d b5bd 1e2a b6bd 9929 233d 5c84 873c
00000230: c14a a5bd e33e e4bd 5625 06be 50ae 1e3e
00000240: cfc5 dcbc 84c1 15bd 9725 6ebd 5af6 a1bd
00000250: 4111 14be 8e19 bebd 23ed c53d 21f2 0d3d
00000260: 6a75 64bd c5bf 74bd e3db ce3d 026c e93d
00000270: 03fd 1b3e 2aeb 3c3d 9170 9c3d 2b25 50bc
00000280: a950 bdbd 719e 1ebe 373c c53d 6743 bcbc
00000290: fa09 853d 8a05 ff3b db1c 17be f2dc 9ebd
000002a0: 5233 363d dd14 03bd 5d59 1cbe 6319 633d
000002b0: 15b4 c63b 1d23 50bd 1bd0 823d 71ba 083d
000002c0: 7cd9 6ebd 4873 113e d673 a23d 2ea3 a23c
000002d0: 1bc2 f8bc 9f24 09be 1103 fa3d a01d 27bd
000002e0: 4c42 d1bd b49d cf3d 1002 663d ef44 203d
000002f0: cb69 00bd 821b 4abd 1fce db3c ed95 fa3d
00000300: e17c b93c c61d 99bd 8ed6 203e ca9d 5d3b
00000310: b4fb ff3d 63d7 1d3d ba20 113e 85d5 ba3d
00000320: 3f17 a5bd 9577 e33d 7652 853a 84f7 01be
00000330: 8eb5 07bd 0324 12be 3ac5 a7bd 5c67 e5bd
00000340: ae79 dd3d 710f 08bd e8ca dfbc 9e2d 9b3d
00000350: bbc8 833d 80b5 d5bd ffac 6e3d 9b90 893d
00000360: 2dbc 00be f3c4 0c3e 5f09 c5bd 0b42 7dbd
00000370: 9f5c 05be 1dfb 133e 54a4 f63c 2b55 083e
00000380: 0c2a 293c 4202 b03d c2c7 4ebd b02a 01be
00000390: 28ed cf3c 3c05 67bc 38c8 82bc 0d08 9fbd
000003a0: cc83 563b 77fd 393d ffa1 693d 846d 02be
000003b0: 5171 9c3d 3f32 853c ab57 df3d 9dd8 e43d
000003c0: c502 ffbd ee7b 1b3e aa3a 1fbe c626 ba3d
000003d0: 3255 363c b03b 993d 061c afbd 81ad c23d
000003e0: 413c a0bd 421c 0fbe a2fa 583d 933e b13d
000003f0: 567e 203e 3e5f 87bc adc0 1b3e 4e08 d03d
0.03829358 -0.11691365 0.13498977 -0.061333373 0.09524033 0.004707279 -0.012314328 -0.0050450657
0.026878485 0.07453427 0.025358286 0.048233416 -0.14222734 0.115191884 0.1378538 0.13069785
0.11688136 -0.11409994 -0.058612816 0.13941301 -0.12042879 0.14344427 -0.12435594 -0.11137677
0.0772984 -0.11360309 -0.036224 0.11502656 0.12524025 0.1495371 -0.032084066 -0.12289572
0.15568066 -0.033682395 -0.065053605 0.038544025 -0.11057291 0.103925124 0.09909514 -0.1254604
-0.12987037 -0.013850209 0.06641186 -0.0045793154 -0.080176 0.0036148683 -0.14861633 -0.111748725
-0.105254725 0.13021158 0.13937831 -0.053706024 0.007091463 0.070515305 0.01894479 -0.079175934
0.09119034 0.09719801 -0.00916357 -0.01946422 0.14368522 0.1382119 -0.08964713 0.15469666
0.03912884 -0.10502886 0.086553514 -0.118043795 0.14608595 -0.101648115 0.04471903 0.04814571
0.037608642 0.13114317 -0.06567252 -0.06675098 -0.13701697 -0.006488947 -0.0749018 0.0063355
-0.032413106 0.052461185 0.13678057 0.046655953 -0.05093484 -0.07758588 -0.1378995 0.13304444
-0.029953115 0.03191609 0.0058488096 -0.10076078 0.0890468 0.08860998 0.00796261 -0.08985437
-0.067183636 0.0021773954 -0.090336345 -0.08822095 -0.023585383 -0.045528956 0.03881392 -0.041559525
-0.020960068 -0.06034915 -0.14449404 0.13789538 0.030165331 0.14138931 -0.025481801 -0.03973605
-0.14864384 -0.060021713 0.10368665 -0.15486394 -0.05530277 0.09633234 0.0911282 0.058382805
-0.03129787 -0.011971697 -0.030026907 -0.05828717 0.0659848 -0.053854045 -0.08882531 0.03586978
-0.114285655 -0.03374384 0.08079835 0.059091818 0.13460837 -0.1078411 0.0013747258 -0.046691462
-0.08843575 -0.08894752 0.039834592 0.016542606 -0.08070899 -0.11144807 -0.1310018 0.15496182
-0.026949791 -0.036561504 -0.058141317 -0.07908316 -0.14459707 -0.09282218 0.09664371 0.03465474
-0.055776037 -0.0597532 0.10100534 0.11397554 0.15233235 0.046122707 0.07638658 -0.012704174
-0.092439 -0.15490128 0.09630626 -0.022981359 0.064960435 0.0077826427 -0.14757101 -0.07756986
0.044482537 -0.03200232 -0.15268464 0.055444133 0.006063948 -0.050814737 0.06387349 0.03338093
-0.058312878 0.14204133 0.0793225 0.0198532 -0.030365994 -0.13392876 0.12207616 -0.040799737
-0.10217723 0.10137501 0.05615431 0.03912824 -0.031350892 -0.04934264 0.026831685 0.12235627
0.022642555 -0.07476382 0.15706846 0.0033815973 0.124991804 0.038535487 0.1417264 0.09122757
-0.080610745 0.11106793 0.001017167 -0.12692076 -0.03313213 -0.1427155 -0.08191915 -0.11201355
0.10814224 -0.03321785 -0.027318433 0.0757706 0.06434771 -0.10435009 0.05827045 0.067170344
-0.12571783 0.13747005 -0.09620928 -0.06183056 -0.13023613 0.14451261 0.030107655 0.13313739
0.010324966 0.08594181 -0.050483473 -0.1261394 0.02538164 -0.014100369 -0.015964612 -0.077652074
0.0032732366 0.04540774 0.057039257 -0.1273709 0.07638801 0.01625931 0.10905393 0.11174128
-0.124517 0.15183994 -0.15549722 0.09089427 0.011128711 0.074820876 -0.08550267 0.095057495
-0.078239925 -0.13975623 0.052973397 0.08654513 0.15673193 -0.016524907 0.15210219 0.10157834

linear2.bias f4 [80]
00000000: 9b3c 1bbe 3a6c e63d 7d9a b6bd cbaa 09bc
00000010: c3b9 deba 40b3 1bbe 556e 92bd 8341 d03c
00000020: da71 39bd 9ee1 be3d e0c9 383d c242 743d
00000030: bd8e b63d 1015 da3c b04c 0ebe a41d 8d3d
00000040: 8a8b 35bd 75fd 043d 2174 5a3d e91a 393d
00000050: 8ea7 ea3d f720 163e 52f3 edbd f9c8 96bd
00000060: 050f 8a3d 5062 5fbb ee85 123d 3b6e 10be
00000070: e8b8 83bd 1a34 28bb 0b1a 043e 62e6 edbd
00000080: 91df 133d 4c69 a03c 0d5c 8cbd d5f5 8b3d
00000090: dcbb 0e3e 1b5c 063e d274 13bd 73d1 ecbb
000000a0: eec7 d7bb 20b4 bd3d 15ca aebd 4f3d 213d
000000b0: d53b ba3d 5c12 b93d 0a42 82bd 43f3 b83d
000000c0: 868f 09be 2bc3 47bd 2980 023e 0671 96bd
000000d0: 23c7 c03b 5f03 193e 71cf 9d3c 54f1 7cba
000000e0: cb1c 1d3d 3983 e6bd c29e 1fbe 4f1a 993d
000000f0: c0e9 8abc aaec 923d 976a 04bc 678b ea3d
00000100: d7cd e4bd 2cfa a5bd 6c49 0fbe e0a6 05be
00000110: b97d fa3d 8381 0abd 1cfc a2bd 5119 4ebd
00000120: 6aa9 57bc faaa 44bd 7af3 19be a1ea dc3d
00000130: a6b7 11bc f720 e9bd 6a3a 393d 26d2 4abd
-0.15159838 0.11251111 -0.08916185 -0.008402537 -0.0016992617 -0.15205097 -0.071499504 0.025421863
-0.045274593 0.09320377 0.045114398 0.059633978 0.08913944 0.026621372 -0.13896441 0.06890419
-0.044322528 0.032468278 0.053333405 0.04519168 0.1145774 0.14661013 -0.11618675 -0.07362551
0.06741146 -0.0034085698 0.035772257 -0.1410455 -0.064317524 -0.002566582 0.1290056 -0.11616208
0.03610188 0.01958146 -0.06853495 0.06833998 0.1393885 0.13121073 -0.03600008 -0.0072271167
-0.006585113 0.09262872 -0.08534638 0.03936511 0.09093443 0.09036705 -0.06360252 0.090307735
-0.13433656 -0.04877011 0.12744202 -0.07345776 0.005883114 0.14942692 0.019263955 -0.0009648998
0.038357537 -0.112554975 -0.15587905 0.07475721 -0.016957164 0.07174046 -0.008082054 0.1145237
-0.11172073 -0.08104357 -0.13992852 -0.13051939 0.12231011 -0.03381492 -0.07958242 -0.050317112
-0.01316295 -0.04801462 -0.15034285 0.107869394 -0.008893883 -0.11383241 0.045221724 -0.04951682

linear3.weight f4 [1, 80]
00000000: 2354 f7bc 73ef b5bd 51d4 dfbd 63fd 083d
00000010: 395a ccbd fc87 943d 4590 cfbd a09d 6abc
00000020: 68b9 b1bd 2d7a 9fbd 8653 bebd 326e 81bd
00000030: 68b5 e73b 276e 553c e46a 51bd 9427 893d
00000040: 795a 2dbd c2de 23bc 9a64 703d 0a60 d23d
00000050: c073 c23d fb3e d7bd 3f7e a0bd 4955 9c3c
00000060: 5eb6 a2ba cbc4 ae3d 21e8 7a3d 1cef a6bd
00000070: 8182 d33d c489 083d 8d3c 6a3d 3198 a8bc
00000080: 343f a73d d8f0 9bbd 9519 4a3d 1dde e23d
00000090: 223d 053d bc91 1fbd c59c 713b a434 a63d
000000a0: b1ee 84bd 989a 64bd 3c3e 923c bbe1 46bd
000000b0: 61cb f9bc 5755 24bd 2f8e 7a3d 4113 c5bd
000000c0: f368 c4bd 9371 b23d 8a1f 80bc ab27 c9bd
000000d0: dbe6 5a3d a712 92bd 908a ccbb 6d0c 8b3d
000000e0: 3c00 81bd 3310 b0bd 4e2f 803c 75c2 60bd
000000f0: 6f26 d6bc 58d7 a63d 9b75 c03c 4205 033d
00000100: 4bc2 cebd 1f8f 8dbd c184 9ebd 4f4a df3d
00000110: 9416 2cbd 8598 dc3d a182 e13d 480e 8cbd
00000120: 0d34 433d b14e 35bd b12b dc3d e538 a53d
00000130: 6237 013d 0c63 6e3d 6a4e 7bbc 99dc 6bbc
-0.030191487 -0.08883562 -0.10929168 0.033444773 -0.09978146 0.072524995 -0.10134939 -0.014319807
-0.086779416 -0.07786975 -0.092932746 -0.06319846 0.007071186 0.013026751 -0.05112733 0.06697002
-0.04232261 -0.01000184 0.05868969 0.10272224 0.09494734 -0.105100594 -0.078365795 0.019083636
-0.0012413969 0.08533629 0.06125653 -0.08151075 0.10327626 0.03333451 0.057186652 -0.020580383
0.08166352 -0.07614297 0.049340803 0.11077521 0.032529004 -0.038957343 0.0036867124 0.08115509
-0.06490839 -0.055811495 0.017851941 -0.048555117 -0.030492486 -0.04012045 0.061170753 -0.09622813
-0.0959033 0.08713069 -0.015640039 -0.09822019 0.053442817 -0.07132464 -0.006242104 0.067894794
-0.06298873 -0.0859684 0.015647557 -0.05487295 -0.026141373 0.08146542 0.023493579 0.031987436
-0.10095652 -0.06912064 -0.077401645 0.10902845 -0.04201372 0.10771278 0.110112436 -0.068386614
0.04765706 -0.0442645 0.10750521 0.080674924 0.031546958 0.058199927 -0.01533852 -0.014395856
