unsorted/model_tofmin_lr1e3.pth (torch, 2664 bytes, 3 tensors)

linear1.weight f4 [20, 4]
00000000: 8b77 743e b125 27be 8741 74bd 38d5 8a3e
00000010: 9f4a eebe 02b2 bf3e 1934 cb3e ef35 af3e
00000020: fee4 483d 46aa 03bd b763 243e 47f7 913d
00000030: 8220 253e d523 3dbe 5919 e1bc 86e5 363c
00000040: 0b8b be3d d023 dcbc dacc d43e b505 ae3d
00000050: 5888 38bd 9fdf b8bd bc8b 33be 6eb9 9bbe
00000060: cab8 d1bb 2d1a e63d d2ea bc3e a666 a23e
00000070: ec35 8fbe d2d4 753f 7c20 333f 1b2b a63e
00000080: de02 9e3e 802a e3be e86e edbe d7aa 3bbe
00000090: 2008 d63e a5aa a8bd e72a 5b3e 0e6d 3cbe
000000a0: 1d48 f03e 87da 50be b4b2 c23e 891a 763d
000000b0: fc62 c8bd 4767 b03e 28bf afbe c882 1f3e
000000c0: 5cc0 40be e2c2 c1bd 8cc5 04bf 61b2 44be
000000d0: 9177 943e 0e51 2cbe c27c ea3e eb15 b63e
000000e0: eeac 693d b764 313e a03c df3e a3a9 c63e
000000f0: 5687 8cbe 3395 bc3e 334d 4c3e 67b4 da3e
00000100: 7e91 aa3a 11d9 613e fd63 f03d c415 4b3c
00000110: 0464 13be e29d 0fbe 03f0 dd3e 497e 77bb
00000120: cb23 883e ff1b 2c3c ecda 183e 613d 3d3d
00000130: faf0 4e3e 3e9d 513e de3e ffbe 0a34 433e
0.23873727 -0.16322972 -0.059632804 0.27115798 -0.46541306 0.37440497 0.39688185 0.34220836
0.04904651 -0.032144807 0.16053663 0.071272425 0.16125682 -0.184707 -0.027477907 0.011163121
0.09303864 -0.026872545 0.4156254 0.08497182 -0.045051903 -0.09027027 -0.17533773 -0.3041491
-0.0064002024 0.112354614 0.36897904 0.3171894 -0.27970827 0.96027863 0.6997144 0.32454762
0.30861562 -0.44368362 -0.46373677 -0.18326889 0.41803074 -0.08235673 0.21403085 -0.18400976
0.46930018 -0.20395862 0.38026965 0.0600839 -0.09784505 0.34453794 -0.34325528 0.15577233
-0.1882338 -0.09460999 -0.5186393 -0.19208671 0.28997472 -0.16827795 0.45798308 0.35563597
0.057049684 0.17323576 0.4360094 0.38801298 -0.27447003 0.3683258 0.19951324 0.4271576
0.0013013331 0.2205546 0.11737821 0.012395326 -0.14393622 -0.14025071 0.43347177 -0.003776448
0.26589808 0.010504722 0.14927262 0.046201114 0.20209113 0.2047014 -0.4985265 0.1906282

linear1.bias f4 [20]
00000000: 33cc 95be c5af b4be dde4 8a3d d2de 8fbd
00000010: e96b 843e 25c9 2cbe 3c00 8dbe 4ad3 1d3f
00000020: 3f08 6bbd 8d2a 923e 566b 313e 9d38 66be
00000030: e3f9 5d3d 2f3f 713d 1f67 153e a04b 26be
00000040: 847d 3b3f 01eb a23e be2b 73be 0884 50be
-0.29257354 -0.35290352 0.067819335 -0.070249215 0.2586358 -0.16873606 -0.2753924 0.61650527
-0.05738091 0.2854809 0.17326102 -0.22482534 0.05419339 0.058898147 0.14590119 -0.16239786
0.73238397 0.3181992 -0.23747155 -0.20362866

linear2.weight f4 [1, 20]
00000000: 2474 3f3e 4bed 23be 2d3e de3d 315e 993d
00000010: edaf 21be 9acb 78be b25a b23a 5dbd 69bd
00000020: 2115 043e 47db bd3c 4639 503d 8dbd f23d
00000030: e150 383e 8cdd 27be 935b 433e 6637 863d
00000040: 5323 df3e b1f5 ec3d f0c9 3abe 4a1c 36be
0.18696648 -0.16008489 0.10851703 0.07488669 -0.15789767 -0.24296418 0.0013607352 -0.057065357
0.12898685 0.023175849 0.05083587 0.1185256 0.17999603 -0.16393107 0.19077902 0.06553535
0.43581638 0.115702994 -0.18241096 -0.17784229
