unsorted/model_tofstd_lr1e4.pth (torch, 2664 bytes, 3 tensors)

linear1.weight f4 [20, 4]
0.24410506 -0.12734152 0.002154197 0.3319773 -0.4521175 0.41504496 0.015763098 0.22898829
0.056147426 0.030900575 0.23887609 0.12303774 0.1692032 -0.107158445 0.051868327 0.041745875
0.0863362 -0.1044822 0.32099342 0.040794786 -0.027832476 -0.3947318 0.1319721 0.0005190591
-0.16909887 0.014826653 0.2881831 0.26258346 -0.37728935 0.2665253 0.2636757 0.52907944
0.31646675 -0.3649283 -0.3830618 -0.15040451 0.42637447 -0.002791149 0.2988859 -0.14942846
0.47746676 -0.12543951 0.46437526 0.093693785 -0.20417373 0.2249521 -0.36671364 0.06506647
-0.1407348 0.037381515 -0.4351193 -0.039750624 0.28516683 -0.2238209 0.38164788 0.285559
0.05631224 -0.41340983 -0.06920318 -0.1901845 -0.048351295 0.38915545 0.42090616 0.5653447
-0.015110917 -0.21403651 0.090731844 -0.002003377 -0.35412276 -0.30758002 0.51982284 -0.074376136
0.25815332 -0.072363086 0.05208294 -0.0002829664 0.19542834 0.13358796 -0.5710704 0.13602051
00000000: adf6 793e d165 02be 6e2d 0d3b eef8 a93e
00000010: f27b e7be c680 d43e 9d21 813c e87b 6a3e
00000020: d8fa 653d 3423 fd3c ef9b 743e 36fb fb3d
00000030: 9b43 2d3e e375 dbbd e273 543d b9fd 2a3d
00000040: 09d1 b03d c4fa d5bd 4059 a43e 6f18 273d
00000050: ef00 e4bc 491a cabe b223 073e 7711 083a
00000060: 4128 2dbe 7deb 723c bc8c 933e 5771 863e
00000070: 122c c1be 0176 883e 8000 873e c071 073f
00000080: ee07 a23e e2d7 babe ad20 c4be a403 1abe
00000090: c14d da3e b6eb 36bb 9307 993e c603 19be
000000a0: 8676 f43e 3773 00be 98c2 ed3e 87e2 bf3d
000000b0: eb12 51be d859 663e e4c1 bbbe 9241 853d
000000c0: c91c 10be 5c1d 193d f5c7 debe 8dd1 22bd
000000d0: 6301 923e 4e31 65be 5a67 c33e ca34 923e
000000e0: aaa7 663d 74aa d3be 66ba 8dbd babf 42be
000000f0: 020c 46bd 623f c73e 0381 d73e 6eba 103f
00000100: c893 77bc 632c 5bbe 9ed1 b93d 174b 03bb
00000110: 944f b5be 217b 9dbe 1c13 053f 8452 98bd
00000120: ac2c 843e 1933 94bd ec54 553d 1b5b 94b9
00000130: 5e1e 483e 48cb 083e ab31 12bf f648 0b3e

linear1.bias f4 [20]
-0.28947037 -0.30223706 0.09304385 -0.030601472 0.21949926 -0.05845843 -0.4535327 0.48768872
-0.016764715 0.3333815 0.21585661 -0.41648778 0.11793696 0.045113545 -0.58090436 0.07589871
-0.033112552 0.26131472 -0.2839218 -0.22526668
00000000: 7635 94be d1be 9abe c68d be3d f0af fabc
00000010: 6ac4 603e 1b72 6fbd 7035 e8be 56b2 f93e
00000020: 2856 89bc fbb0 aa3e 8409 5d3e e33d d5be
00000030: ef88 f13d fbc8 383d 26b6 14bf c870 9b3d
00000040: 07a1 07bd 0bcb 853e 335e 91be 4fac 66be

linear2.weight f4 [1, 20]
0.18436977 -0.13064632 0.11345407 0.07535604 -0.16322996 -0.26832753 0.20985083 -0.016361574
0.12744778 0.03228798 0.05540797 0.14076623 0.26283547 -0.16781661 -0.08699865 0.09357361
0.4943043 0.18517202 -0.17734687 -0.16397797
00000000: 6ecb 3c3e 26c8 05be 9c5a e83d 4454 9a3d
00000010: c125 27be 3a62 89be 23e3 563e b508 86bc
00000020: ac81 023e 6740 043d 78f3 623d 0625 103e
00000030: 5f92 863e 1ed8 2bbe 592c b2bd 85a3 bf3d
00000040: 7415 fd3e bc9d 3d3e 6b9a 35be d7e9 27be
