unsorted/model_tofmin_lr1e3_noLoaderShuffle.pth (torch, 2856 bytes, 3 tensors)

linear1.weight f4 [20, 4]
0.23880723 -0.15688108 -0.05799377 0.27131614 -0.45629534 0.37238374 0.41255897 0.34534958
0.048888877 -0.02708003 0.16177233 0.07259888 0.16125408 -0.18321063 -0.027987741 0.012354475
0.09306748 -0.029195039 0.4159023 0.08414473 -0.04652053 -0.08879807 -0.17722343 -0.3037605
-0.006538988 0.09983536 0.35237643 0.31541756 -0.28171235 1.0449724 0.69870216 0.35373613
0.30860853 -0.4422403 -0.4643378 -0.18204032 0.41804844 -0.0812378 0.21394372 -0.18297176
0.46930218 -0.2025062 0.38025084 0.061256316 -0.09582793 0.3494494 -0.31506425 0.1526006
-0.18731442 -0.09400234 -0.5178702 -0.19390127 0.28985173 -0.17261341 0.45673272 0.35626012
0.057839077 0.17068289 0.4374286 0.38026235 -0.27425176 0.37533537 0.21553071 0.42753518
0.00050434977 0.20961995 0.11214494 0.010836073 -0.12203894 -0.13695644 0.44184124 0.00938793
0.265921 0.008689346 0.14944191 0.04493879 0.20212367 0.20111267 -0.4986829 0.18902527
00000000: e289 743e 6fa5 20be e08a 6dbd f3e9 8a3e
00000010: 8b9f e9be 15a9 be3e ee3a d33e a9d1 b03e
00000020: b43f 483d f0d6 ddbc a5a7 253e b9ae 943d
00000030: ca1f 253e 919b 3bbe 8c46 e5bc 6d6a 4a3c
00000040: 2a9a be3d 6f2a efbc 25f1 d43e 1254 ac3d
00000050: 508c 3ebd c3db b5bd 0f7a 35be 7f86 9bbe
00000060: 0245 d6bb 7b76 cc3d af6a b43e 697e a13e
00000070: 9a3c 90be a8c1 853f 25de 323f e71c b53e
00000080: f001 9e3e 526d e2be afbd edbe c768 3abe
00000090: 720a d63e 0160 a6bd 1014 5b3e f35c 3bbe
000000a0: 6048 f03e c95d 4fbe 3db0 c23e e7e7 7a3d
000000b0: 6f41 c4bd 08eb b23e 1a50 a1be 5543 1c3e
000000c0: 5acf 3fbe 4d84 c0bd 2493 04bf 0e8e 46be
000000d0: 7267 943e 92c1 30be dfd8 e93e ba67 b63e
000000e0: abe8 6c3d 7fc7 2e3e a4f6 df3e bfb1 c23e
000000f0: ba6a 8cbe f52b c03e 15b4 5c3e e4e5 da3e
00000100: 5736 043a 9da6 563e 3fac e53d c989 313c
00000110: 8def f9bd 4f3e 0cbe 0439 e23e d5cf 193c
00000120: cc26 883e c25d 0e3c 4d07 193e bd11 383d
00000130: 82f9 4e3e 7bf0 4d3e 5d53 ffbe d78f 413e

linear1.bias f4 [20]
-0.2899342 -0.35096937 0.07059031 -0.07008251 0.2589564 -0.16774182 -0.30137584 0.58027834
-0.05722823 0.2857241 0.1735411 -0.24392019 0.05318419 0.05723399 0.1438886 -0.16123642
0.7203665 0.3216838 -0.23770396 -0.2037377
00000000: 4172 94be 42b2 b3be a791 903d 6b87 8fbd
00000010: ef95 843e 83c4 2bbe ef4d 9abe 1f8d 143f
00000020: 2668 6abd 6e4a 923e c2b4 313e 37c6 79be
00000030: aad7 593d 306e 6a3d 8857 133e 291b 25be
00000040: f069 383f bdb3 a43e ab68 73be 9ea0 50be

linear2.weight f4 [1, 20]
0.18698187 -0.1597022 0.10851074 0.07489182 -0.15790689 -0.24260955 0.001881792 -0.05517646
0.1289532 0.023145877 0.05083208 0.11524938 0.1809667 -0.16390467 0.19366953 0.06794346
0.44115245 0.094056904 -0.1824289 -0.17783771
00000000: 2d78 3f3e f988 23be e13a de3d e260 993d
00000010: 58b2 21be a36e 78be 76a6 f63a b600 62bd
00000020: 4f0c 043e 6c9c bd3c 4d35 503d de07 ec3d
00000030: 564f 393e a0d6 27be 4e51 463e f125 8b3d
00000040: bcde e13e e8a0 c03d a4ce 3abe 171b 36be
