unsorted/model_v2_tofstd.pth (torch, 2640 bytes, 3 tensors)

linear1.weight f4 [20, 4]
0	0x3e78935c	0.24274963
1	0xbdf90ddf	-0.12160849
2	0x3b48f7ff	0.0030665395
3	0x3ea658d2	0.3248964
4	0xbe9d6b3b	-0.30745873
5	0x3ed86c30	0.4227004
6	0x3e2f52da	0.17121449
7	0xbdde7d67	-0.10863762
8	0x3d5db57e	0.054128163
9	0x3d117fb6	0.035522185
10	0x3e71bd21	0.23607303
11	0x3de7b3d6	0.11313598
12	0x3e2a89e7	0.16654168
13	0xbdd0f1e6	-0.102023885
14	0x3d4edf6b	0.050506037
15	0x3d04a99f	0.032388326
16	0x3dae9a8a	0.0852557
17	0xbde27c1c	-0.11058828
18	0x3ea20f18	0.3165214
19	0x3d2cb0af	0.042160686
20	0xbbbfde27	-0.00585534
21	0xbecc5077	-0.3990514
22	0x3e173c94	0.14769202
23	0xbd141da7	-0.03616109
24	0xbe2d8fbf	-0.16949366
25	0x3c6f29d7	0.014597378
26	0x3e941b64	0.28927147
27	0x3e8660ec	0.2624582
28	0xbeee5b33	-0.46553954
29	0x3e896768	0.26836705
30	0x3e6b4989	0.2297727
31	0x3e5ed0b3	0.217593
32	0x3ea1231b	0.31472096
33	0xbeb7f9d3	-0.35932788
34	0xbec40331	-0.38283685
35	0xbe2266f2	-0.15859583
36	0x3ed76308	0.42067742
37	0x3b00593a	0.0019584433
38	0x3e95587b	0.29169068
39	0xbe27d876	-0.16391167
40	0x3ef29fd6	0.4738757
41	0xbdf834b1	-0.12119425
42	0x3eeaff7e	0.4589805
43	0x3da1012f	0.07861554
44	0xbe2c23a6	-0.16810474
45	0x3e88a023	0.26684675
46	0xbf1210d1	-0.5705691
47	0xbe863523	-0.26212415
48	0xbe253fcc	-0.16137618
49	0x3d26e1da	0.040742733
50	0xbe2e8981	-0.17044641
51	0x3e5e4f1d	0.21709867
52	0x3e917b52	0.28414398
53	0xbe6b9b99	-0.23008575
54	0x3ec1eada	0.3787449
55	0x3e92eefa	0.2869795
56	0x3d408290	0.046999514
57	0xbec35b60	-0.3815565
58	0xbe1e5d20	-0.15465212
59	0xbea3383e	-0.31878847
60	0xbd35b183	-0.04435874
61	0x3eb8c170	0.3608508
62	0x3e31d18f	0.17365097
63	0x3e9c3a3a	0.30513173
64	0xbb5b6c36	-0.0033481247
65	0xbe6c100f	-0.23053001
66	0x3dc106b6	0.09425108
67	0xbc9fd7d9	-0.019512104
68	0xbeb68d1c	-0.35654533
69	0xbe6c2c0e	-0.2306368
70	0x3f806643	1.0031208
71	0xbe82edf6	-0.25572175
72	0x3e83b161	0.25721267
73	0xbda13f97	-0.07873457
74	0x3d41f1f2	0.047349878
75	0x3b541a75	0.0032364402
76	0x3e471014	0.19439727
77	0x3e01893e	0.1265001
78	0xbf0df515	-0.5545209
79	0x3e0c2ca3	0.13688903

linear1.bias f4 [20]
0	0xbe937b25	-0.2880489
1	0xbdaecb58	-0.085348785
2	0x3dba0539	0.090830274
3	0xbd01ed12	-0.03172023
4	0x3e5b62ae	0.21424362
5	0xbde400d6	-0.11132972
6	0xbee85379	-0.45376185
7	0x3f0ad2b4	0.5422776
8	0xbc8647f8	-0.01639174
9	0x3ea71df0	0.32640028
10	0x3e55d00c	0.20880145
11	0xbe60cd80	-0.21953392
12	0x3d98f98b	0.074694715
13	0x3d2db77e	0.04241132
14	0xbf20226c	-0.62552524
15	0x3f12e046	0.57373464
16	0xbd8b70a2	-0.068085924
17	0x3ed86197	0.42261955
18	0xbe941a96	-0.28926533
19	0xbe63e5dd	-0.22255655

linear2.weight f4 [1, 20]
0	0x3e3be1cf	0.18347858
1	0xbdf31556	-0.11869304
2	0x3de07d22	0.10961367
3	0x3d98009f	0.074219935
4	0xbe24759f	-0.16060494
5	0xbe8c338d	-0.2738308
6	0x3e5407b7	0.20706068
7	0xbd24488d	-0.040108252
8	0x3e020e68	0.12700808
9	0x3d0120a9	0.031525288
10	0x3d60713b	0.054795485
11	0x3e2a2641	0.16616155
12	0x3df48256	0.11938922
13	0xbe2b1e20	-0.1671071
14	0xbd99b9a7	-0.075061135
15	0x3da32f09	0.079679556
16	0x3ef2abba	0.47396642
17	0x3db63081	0.0889597
18	0xbe34ea0c	-0.17667407
19	0xbe279cc9	-0.16368403
