unsorted/model_tofstd_lr1e3.pth (torch, 2664 bytes, 3 tensors)

linear1.weight f4 [20, 4]
00000000: 8822 793e 2725 f9bd 5661 68bd ef5d 9a3e
00000010: 067b e7be a91b d53e 0857 6e3d 7bdf 583e
00000020: b7e2 603d 33de 103d 86eb 353e 4bc5 b73d
00000030: d1a6 2b3e 390f d2bd 312e 50bb c468 443c
00000040: 1c69 af3d 680b e4bd c079 c53e ae99 943d
00000050: 7a29 9f39 86e3 ccbe 0b97 9e3d 021e 2dbd
00000060: bf8f 2dbe d729 6f3c 641b 943e ec60 863e
00000070: 2dcd e9be d850 943e 560d 003e 9c33 ee3e
00000080: 3580 a13e f213 b8be d6bb e0be 82de 37be
00000090: 22a0 d83e b89d e239 56d8 783e 961d 3abe
000000a0: b264 f33e 4cbe f7bd 530d d13e 1916 813d
000000b0: 0150 73be b56d 5b3e 501d e8be d6b5 ffbc
000000c0: aff5 dbbd 9226 213d d614 97be 0b94 9fbc
000000d0: a7a9 913e 11a1 6cbe 0c74 e43e fc5a a23e
000000e0: cd0f 493d c846 c5be 7c57 ca3d 34ee 02be
000000f0: e8d5 02bd bb65 bf3e c9ab b83e 4322 353f
00000100: 1ace 60ba 7420 6abe ac65 793e aa72 833d
00000110: 5af0 bdbe 0df5 b0be 0ffa d43e ad11 1bbe
00000120: 9fdd 833e 61c4 a2bd b192 eb3d 1afc f73c
00000130: ff42 473e ceaf 003e 3e72 03bf bba1 273e
0.24329579 -0.12165289 -0.05673345 0.3014979 -0.45211047 0.41622666 0.05818847 0.21179001
0.054903712 0.035368156 0.17765626 0.089731775 0.16762854 -0.1025681 -0.0031765813 0.011987869
0.0856497 -0.11134988 0.3856945 0.072558746 0.00030357746 -0.40017337 0.07743653 -0.042264946
-0.16949366 0.014597378 0.28927147 0.2624582 -0.4566435 0.2896793 0.12505087 0.4652375
0.31543127 -0.35952717 -0.43893307 -0.17955974 0.42309672 0.0004322359 0.24301276 -0.18175349
0.47537762 -0.12096843 0.40830478 0.06303043 -0.23760988 0.21428569 -0.45334864 -0.031214636
-0.1074022 0.039343424 -0.29508084 -0.019479772 0.28449747 -0.23108317 0.44619787 0.3171004
0.049087334 -0.38530564 0.098799676 -0.1278618 -0.03194228 0.37382302 0.36068562 0.70755404
-0.00085756334 -0.22863942 0.24355191 0.06418355 -0.37097436 -0.3456196 0.4159703 -0.15143462
0.2575502 -0.079476126 0.115025885 0.030271579 0.1945915 0.12567064 -0.51346195 0.16370289

linear1.bias f4 [20]
00000000: 9d1a a0be d09c 8fbe 5174 8b3d 7f84 59bd
00000010: 8aa8 793e 22a4 02be 7953 e8be 5437 d03e
00000020: 3858 1fbd d849 9e3e e272 453e 3886 d7be
00000030: 76db 533e be8d 8e3d 250f 01bf 350e 323e
00000040: 61f4 773d 5437 473e 2b4c 85be f2bc 51be
-0.31270304 -0.28049326 0.06809295 -0.053104874 0.24380699 -0.12757924 -0.45376185 0.40667212
-0.03890249 0.30915713 0.19282106 -0.42094588 0.20689186 0.06960629 -0.50413734 0.17388232
0.060535792 0.194547 -0.26034674 -0.20482233

linear2.weight f4 [1, 20]
00000000: 6077 3c3e cac7 0ebe b743 e23d 7026 993d
00000010: 3a9a 26be 0a53 8fbe b707 543e 7924 193c
00000020: 8096 023e b4b3 013d dbd4 603d 4546 123e
00000030: 7487 4d3e 37aa 2bbe c882 98bd 74d8 b53d
00000040: 5cc2 fb3e 491a 343e 6801 35be 0a5b 27be
0.18404913 -0.13943401 0.11048072 0.074780345 -0.1626977 -0.2799304 0.20706068 0.009347075
0.12752724 0.03166552 0.054890495 0.14284618 0.20071203 -0.1676415 -0.074468195 0.08879176
0.49171722 0.17588152 -0.17676318 -0.16343322
