unsorted/model_v4.pth (torch, 2584 bytes, 3 tensors)

linear1.weight f4 [20, 4]
000000 51 5b 78 3e 58 00 0f be bf 3e 6f bd 97 3d 8e 3e
       0.24253584 -0.13964975 -0.05840945 0.27781364
000010 b0 49 04 bf 82 3a ba 3e 77 8e 4e 3e 01 92 4b 3e
       -0.5167494 0.36372763 0.20171534 0.19879915
000020 3f b3 5d 3d 3e 77 90 3c 59 1b 32 3e fb 1e 87 3d
       0.05412602 0.017634984 0.17393245 0.06597706
000030 33 e5 2a 3e 7a 03 f3 bd d9 64 8d bb f8 38 0d bc
       0.16688995 -0.118658975 -0.0043150005 -0.008619539
000040 f9 03 b1 3d d4 fd b8 bd 31 fa c7 3e 8b 1c d7 3d
       0.08643336 -0.09032789 0.39058068 0.10503491
000050 00 7d 2b 3c b9 01 c6 be 46 67 eb 3c 00 ef 9a bd
       0.010466814 -0.3867319 0.028735768 -0.07565117
000060 40 40 2e be d2 3d 68 3c 35 33 94 3e 7b 1a 86 3e
       -0.17016697 0.014174895 0.28945318 0.26192078
000070 5f 4e f5 bd 64 00 89 3e 26 b3 e8 3e e0 8d 39 3f
       -0.11977839 0.2675811 0.4544918 0.7248211
000080 dd 20 a1 3e 21 c3 c0 be 70 3f e1 be 44 07 4e be
       0.31470385 -0.37648872 -0.4399371 -0.20119959
000090 0f 2d d8 3e 6e bb 6a bc a7 e8 74 3e 9b f3 4e be
       0.42221877 -0.014326913 0.23916875 -0.20210116
0000a0 6c fb f2 3e a3 82 0c be 0c 0a cf 3e fa aa 1b 3d
       0.47457445 -0.13721709 0.40437353 0.038004853
0000b0 fc 29 31 be 19 6d 73 3e e1 e9 c8 be 68 a7 94 3e
       -0.17301172 0.23772086 -0.39240935 0.2903397
0000c0 31 f3 c9 bb f8 19 27 3e 46 5e da bd a0 e5 bf bc
       -0.006163024 0.163185 -0.106625125 -0.023424923
0000d0 5c 10 92 3e 5f fc 56 be c7 e1 e6 3e a2 23 b3 3e
       0.28528106 -0.2099471 0.4509413 0.34988123
0000e0 ea f0 94 3c 8b f6 b6 be 57 e6 18 3e d7 26 10 3d
       0.018181283 -0.35734972 0.14931618 0.03519329
0000f0 c3 ea 68 bc 13 14 d0 3e 56 e9 16 3f ee 18 38 3f
       -0.014216128 0.40640315 0.5894979 0.7191304
000100 d2 4e 9d 3a bd 33 02 be 2a ac 70 3e 5f 37 1e 3e
       0.001200164 -0.12715049 0.23503175 0.1545081
000110 b7 9a bc be 66 5e ae be 20 8a ec 3e 45 39 c1 bc
       -0.36836788 -0.34056395 0.4619913 -0.023586879
000120 b4 3e 84 3e c2 6a 72 bd 13 69 ef 3d 61 c5 6a 3d
       0.2582909 -0.059183843 0.11689963 0.05731714
000130 be 0f 48 3e 10 bb 17 3e 3d 36 01 bf 78 16 43 3e
       0.19537255 0.14817452 -0.50473386 0.1905154

linear1.bias f4 [20]
000000 9e bf 9e be d6 78 f8 be 69 cb 8e 3d 0a ab 4e bd
       -0.31005567 -0.4852969 0.06972391 -0.050456084
000010 81 c1 79 3e 39 d4 47 be a7 ab e8 be 04 6a 1e 3f
       0.24390222 -0.1951455 -0.4544346 0.61880517
000020 d5 e6 12 bd 6d 96 9e 3e 82 70 44 3e 4e dc 76 be
       -0.03586467 0.3097414 0.19183543 -0.24107477
000030 a2 dc 8d 3e 29 4d 8f 3d 76 3b 00 bf 8c 2c 8a 3e
       0.27707392 0.06997139 -0.5009073 0.26987112
000040 2d 1a 10 3f bc 5d 84 3e 21 f5 86 be 9b 01 54 be
       0.5628994 0.25852764 -0.26358894 -0.20703737

linear2.weight f4 [1, 20]
000000 50 c5 3c 3e cc b2 00 be f3 c2 de 3d 21 59 9a 3d
       0.18434644 -0.12568206 0.10877027 0.07536531
000010 fe 82 24 be ad 8e 76 be e3 f0 55 3e 71 6e a1 bd
       -0.16065595 -0.24077864 0.20892672 -0.07882393
000020 53 48 04 3e 55 d1 fd 3c d5 21 60 3d 11 d0 e1 3d
       0.12918214 0.030983606 0.054719765 0.11026014
000030 f5 30 97 3e 46 b1 2a be 6b 23 55 bd ed 97 b6 3d
       0.2952954 -0.16669187 -0.05203573 0.08915696
000040 89 e3 e8 3e 13 91 4c 3e 0f 23 35 be ed 57 2a be
       0.45486096 0.19977216 -0.17689155 -0.16635104
