unsorted/model_v3.pth (torch, 2584 bytes, 3 tensors)

linear1.weight f4 [20, 4]
0	0x3e72f16c	0.23724908
1	0xbe45714f	-0.19281505
2	0xbdf26d46	-0.118372485
3	0x3e5aed9a	0.213797
4	0xbefe0ce2	-0.49619204
5	0x3e90d070	0.28284025
6	0xbe012125	-0.126103
7	0x3e6c1165	0.2305351
8	0x3d4959c8	0.049157888
9	0xbd09f10e	-0.033677153
10	0x3df04ee4	0.11733797
11	0x3b7c701d	0.0038518973
12	0x3e263251	0.16230132
13	0xbe2b9d0d	-0.16759129
14	0xbd6c79a8	-0.057733208
15	0xbd86b86c	-0.065781444
16	0x3dbe7749	0.093000956
17	0xbcfe29a5	-0.031025717
18	0x3eeaecef	0.4588389
19	0x3e34efaf	0.17669557
20	0xbe1ef648	-0.15523636
21	0xbeaa4e60	-0.3326292
22	0xbd564482	-0.052311428
23	0xbe3dde4f	-0.18541835
24	0xbe2da2c1	-0.16956617
25	0x3c6e8486	0.014557963
26	0x3e940f95	0.28918138
27	0x3e8659c3	0.26240358
28	0xbee89aa6	-0.45430487
29	0x3eaa64ee	0.33280128
30	0x3e2f8670	0.17141128
31	0x3f0145d0	0.5049715
32	0x3e9e886e	0.30963463
33	0xbedb16b6	-0.42790765
34	0xbefe5ee8	-0.49681783
35	0xbe862af4	-0.26204646
36	0x3ed67a43	0.41890153
37	0xbd6b75b3	-0.057485294
38	0x3e45be83	0.19310956
39	0xbe816e99	-0.25279692
40	0x3ef0ce3e	0.4703235
41	0xbe3d2816	-0.18472323
42	0x3eb52483	0.3537942
43	0xbc7173a8	-0.014737047
44	0xbe7099b3	-0.23496132
45	0x3e8ced57	0.27524826
46	0xbe7556a6	-0.23958835
47	0x3e312e3d	0.17302795
48	0xbe13d7b0	-0.14437747
49	0xbd6085c0	-0.054815054
50	0xbef61d88	-0.48069406
51	0xbe741cbc	-0.23839086
52	0x3e956f0f	0.29186293
53	0xbe1a2bd1	-0.15055777
54	0x3f050fdf	0.5197734
55	0x3ed805ab	0.42191824
56	0xbd398608	-0.045293838
57	0xbe9f01ec	-0.31056154
58	0x3e90920b	0.28236422
59	0x3e0829fa	0.13297263
60	0xbe95955b	-0.29215512
61	0x3eb0f569	0.34562233
62	0x3ea9da02	0.3317414
63	0x3ef09004	0.46984875
64	0xbe841456	-0.25796765
65	0xbd74699e	-0.059671037
66	0x3c2326c4	0.009957973
67	0x3dbd6340	0.09247446
68	0xbebc72b2	-0.36806256
69	0xbeba46ce	-0.36382145
70	0x3e981627	0.297044
71	0xbdb35f34	-0.08758393
72	0x3e87912f	0.26477954
73	0xb9ea44ca	-0.0004468321
74	0x3e3e58d7	0.18588577
75	0x3e062e43	0.13103585
76	0x3e4ef1dc	0.2020945
77	0x3e5fd39c	0.21858066
78	0xbee21a7d	-0.44160834
79	0x3e8b760c	0.272385

linear1.bias f4 [20]
0	0xbebf05fb	-0.3730925
1	0xbecdfc52	-0.40231568
2	0x3c138316	0.009003421
3	0xbdda339d	-0.10654376
4	0x3ea18823	0.31549177
5	0xbe842ab5	-0.25813833
6	0xbee85ce8	-0.45383382
7	0x3ecbb561	0.3978682
8	0xbdc3cc19	-0.09560413
9	0x3e85479a	0.2603119
10	0x3e0ee5ec	0.13954896
11	0xbeb1a34c	-0.34694898
12	0x3dcdb937	0.100450926
13	0x3e114c2a	0.1418921
14	0xbeb6f5c1	-0.3573437
15	0xbe5408f2	-0.20706537
16	0x3e452227	0.1925131
17	0x3df076bc	0.11741397
18	0xbe437a53	-0.19089632
19	0xbe0561e6	-0.13025627

linear2.weight f4 [1, 20]
0	0x3e3c25f1	0.18373848
1	0xbd02faf4	-0.03197761
2	0x3dd7920f	0.10525905
3	0x3d9ae0ec	0.07562432
4	0xbe29636a	-0.1654183
5	0xbe63eba3	-0.22257857
6	0x3e5548ca	0.20828548
7	0x3d11d66d	0.035604883
8	0x3e06f48a	0.13179222
9	0x3cd32f62	0.02577943
10	0x3d51791b	0.051140886
11	0x3e358dd4	0.17729884
12	0x3e591df6	0.21202835
13	0xbe2d6154	-0.16931659
14	0xb7cc3a6e	-2.4345904e-05
15	0x3e3e796d	0.18601008
16	0x3e392eb7	0.18084227
17	0x3e2b0033	0.16699295
18	0xbe3aa871	-0.18228318
19	0xbe3893aa	-0.1802508
