unsorted/model.pth (torch, 3008 bytes, 3 tensors)

linear1.weight f4 [20, 10]
0.22864197 -0.13957605 0.026588663 0.14842749 -0.29770848 0.26765925 -0.03751136 0.22658043
0.04396103 -0.03872024 0.087709226 0.01560008 0.11549529 -0.12323428 -0.023055773 -0.028469142
0.0458353 -0.0012632738 0.2764358 0.098406956 -0.05191355 -0.19098935 0.034266636 -0.1364019
-0.10133472 0.092827745 0.21620193 0.23772886 -0.30912873 0.19603607 0.12037128 0.29995957
0.25433105 -0.28812703 -0.30067202 -0.113180414 0.29556608 -0.020644093 0.13533266 -0.14695466
0.3016667 -0.13379547 0.26062885 0.00374466 -0.1665943 0.17350657 -0.17377506 0.084382966
-0.09131304 -0.03466944 -0.3040176 -0.15077162 0.19353452 -0.07686778 0.3149785 0.25665018
-0.0048464863 -0.21107669 0.19257075 0.09814353 -0.20441587 0.20540403 0.19967622 0.2804608
-0.17726451 -0.050943375 -0.002634013 0.04618743 -0.23999104 -0.2244023 0.14165653 -0.074152865
0.14090617 0.018028125 0.103831746 0.04981786 0.10046857 0.1263835 -0.29286236 0.1591737
-0.21972218 -0.23859668 0.01476816 -0.05388748 0.18572816 -0.18319099 -0.28141716 0.2327656
-0.046890825 0.17786458 0.053155355 -0.23713139 0.022376874 0.07595683 -0.21173303 -0.19313104
0.085630134 0.008136682 -0.13451463 -0.09572717 0.3181654 -0.058508866 0.22313944 0.13692763
-0.20441188 -0.23103954 0.3150913 0.045054648 0.21676087 0.06553233 0.1758046 0.23620905
0.41416034 -0.20984274 0.03953763 0.33319068 0.25916645 0.2705502 -0.22886 -0.22771695
-0.19124557 0.039727174 0.31502193 -0.19975336 0.16851173 -0.1750439 -0.29732335 -0.06721094
0.18220124 0.2935779 -0.17033191 0.06862497 0.32701513 0.20954946 0.19708043 0.2674163
0.20966253 0.107739784 -0.21624291 -0.26555496 -0.10980727 -0.036823425 -0.1506344 0.115693085
0.09786864 -0.032235064 0.1365215 0.1372978 0.19306937 0.21296158 -0.1070914 0.30896264
-0.042379748 -0.01086432 -0.29848108 -0.20436177 -0.18733694 -0.13525787 0.22482832 -0.103337236
-0.21060546 0.1216686 0.13380821 0.20481777 -0.16363905 0.09112801 -0.098505974 -0.045343176
-0.25200772 -0.14412427 -0.111559175 0.13523015 0.049464718 0.07811345 0.31562856 0.29757425
0.20138389 -0.004641728 -0.21876365 0.24713504 -0.079077 -0.025565546 -0.27242988 -0.06246403
-0.20396306 0.29058358 -0.27338555 -0.24649408 -0.010737921 -0.17098925 0.1847794 -0.121724166
-0.057077892 0.017910397 0.22891663 -0.14011078 0.17886892 0.27478227 0.30933312 -0.22133759
00000000: 1f21 6a3e 06ed 0ebe 78d0 d93c 60fd 173e
00000010: 3f6d 98be a20a 893e 83a5 19bd b304 683e
00000020: 7b10 343d 1d99 1ebd e5a0 b33d 7a97 7f3c
00000030: cb88 ec3d 4162 fcbd 76df bcbc 1e38 e9bc
00000040: ccbd 3b3d 6f94 a5ba fe88 8d3e 9689 c93d
00000050: 4da3 54bd b692 43be 2c5b 0c3d f1ac 0bbe
00000060: 9488 cfbd 791c be3d 0a64 5d3e 326f 733e
00000070: 1f46 9ebe aebd 483e 3885 f63d 4d94 993e
00000080: ae37 823e 6385 93be aff1 99be 22cb e7bd
00000090: 7054 973e cd1d a9bc a594 0a3e 487b 16be
000000a0: 0f74 9a3e ae01 09be 2571 853e f868 753b
000000b0: b297 2abe b5ab 313e 17f2 31be fad0 ac3d
000000c0: 5502 bbbd 8b01 0ebd 32a8 9bbe e063 1abe
000000d0: ea2d 463e db6c 9dbd dd44 a13e a767 833e
000000e0: 46cf 9ebb 7d24 58be 4431 453e 7aff c83d
000000f0: 6552 51be 6f55 523e ec77 4c3e 8f98 8f3e
00000100: d484 35be 00aa 50bd 689f 2cbb 082f 3d3d
00000110: 36c0 75be b7c9 65be 690e 113e 75dd 97bd
00000120: b549 103e b8af 933c bda5 d43d d00d 4c3d
00000130: 77c2 cd3d ad6a 013e 0ef2 95be 6efe 223e
00000140: dafe 60be b052 74be 27f6 713c 1eb9 5cbd
00000150: 862f 3e3e 6b96 3bbe e915 90be 1b5a 6e3e
00000160: 9810 40bd 2222 363e 6eb9 593d 92d2 72be
00000170: b54f b73c 418f 9b3d 8bd0 58be 25c4 45be
00000180: da5e af3d b84f 053c 34be 09be 9b0c c4bd
00000190: 93e6 a23e fea6 6fbd aa7e 643e c236 0c3e
000001a0: 5951 51be a195 6cbe a653 a13e 398b 383d
000001b0: 90f6 5d3e d035 863d 1f06 343e c9e0 713e
000001c0: d30c d43e 04e1 56be 36f2 213d f897 aa3e
000001d0: 77b1 843e 8e85 8a3e 475a 6abe a22e 69be
000001e0: e1d5 43be f6b8 223d 8e4a a13e 258c 4cbe
000001f0: 578e 2c3e b53e 33be c43a 98be e4a5 89bd
00000200: f692 3a3e d84f 963e 7d6b 2ebe 408b 8c3d
00000210: 876e a73e 2294 563e 74cf 493e caea 883e
00000220: c6b1 563e ada6 dc3d c86e 5dbe d2f6 87be
00000230: a2e2 e0bd 29d4 16bd e73f 1abe 7ff0 ec3d
00000240: 5b6f c83d ea08 04bd 4bcc 0b3e cb97 0c3e
00000250: fab3 453e 9a12 5a3e bc52 dbbd 5a30 9e3e
00000260: 6396 2dbd 4300 32bc 83d2 98be 3644 51be
00000270: 41d5 3fbe 0a81 0abe 6539 663e 79a2 d3bd
00000280: f5a8 57be 632d f93d 0505 093e c0bb 513e
00000290: ff90 27be 52a1 ba3d 80bd c9bd c4b9 39bd
000002a0: 2807 81be 5095 13be 2379 e4bd c679 0a3e
000002b0: 849b 4a3d f2f9 9f3d 119a a13e a75b 983e
000002c0: 9437 4e3e a319 98bb 9403 60be f810 7d3e
000002d0: 1ff3 a1bd d66e d1bc ee7b 8bbe 48da 7fbd
000002e0: b1db 50be 5fc7 943e 31f9 8bbe f268 7cbe
000002f0: 1bee 2fbc ce17 2fbe d036 3d3e 854a f9bd
00000300: 82ca 69bd d3b8 923c 1f69 6a3e 3379 0fbe
00000310: 6a29 373e 43b0 8c3e e960 9e3e 52a6 62be

linear1.bias f4 [20]
0.18950167 -0.2338273 0.3826444 -0.06564582 0.19749634 0.03223588 -0.016624944 -0.045365788
0.05169018 0.08043502 0.103971414 0.23323107 -0.2846086 0.28712097 0.33371907 0.25533694
0.28278533 -0.24658802 -0.11722563 0.39926875
00000000: ba0c 423e 6c70 6fbe f7e9 c33e 5171 86bd
00000010: 7b3c 4a3e c509 043d 0931 88bc 7ad1 39bd
00000020: 15b9 533d 1ebb a43d f7ee d43d 20d4 6e3e
00000030: 38b8 91be 8501 933e 3add aa3e 86bb 823e
00000040: 3dc9 903e 9281 7cbe fe13 f0bd f46c cc3e

linear2.weight f4 [1, 20]
-0.3742115 0.20286082 -0.37177494 -0.19828877 -0.15898992 -0.1902401 -0.07185208 0.028479103
0.1767507 0.15897492 -0.1887312 -0.5311414 0.22016197 -0.29063433 -0.16787766 0.04007277
-0.20736538 0.14150237 0.1401417 -0.36060208
00000000: a698 bfbe bfba 4f3e 4959 bebe 360c 4bbe
00000010: 41ce 22be 4dce 42be 2f27 93bd 024d e93c
00000020: 23fe 343e 52ca 223e c042 41be e2f8 07bf
00000030: 2472 613e 06ce 94be 1fe8 2bbe 5823 243d
00000040: 9757 54be ffe5 103e 4e81 0f3e d6a0 b8be
