unsorted/model_v2_epoch200.pth (torch, 2656 bytes, 3 tensors)

linear1.weight f4 [20, 4]
0.23870875 -0.14158516 -0.08074351 0.24087177 -0.27646413 0.38498923 0.82911956 0.2100111
0.049343128 0.01628486 0.14820856 0.030652512 0.1610271 -0.11856261 -0.02575944 -0.043670118
0.086991526 -0.08576714 0.4138938 0.13118915 -0.036680426 -0.39168313 -0.14985593 -0.23764104
-0.17052697 0.013637217 0.28804326 0.26146394 -0.25074327 0.2644134 0.16524051 0.22850402
0.31032684 -0.377737 -0.4613264 -0.23675506 0.41055635 -0.009817345 0.2115318 -0.23821102
0.46708885 -0.13546583 0.3818273 0.013064169 -0.2620912 0.22926761 -0.72378135 -0.36881953
-0.01100737 -0.089789964 -0.028845051 -0.05808984 0.28598246 -0.20492238 0.47590002 0.37865657
0.04540897 -0.2660575 0.3659271 0.32530424 0.041348375 0.48833895 0.20462547 0.29987422
0.00068650546 -0.067833 0.24166021 0.20843774 -0.3586342 -0.3025022 0.655601 -0.24033748
0.2590245 -0.054482635 0.13986827 0.096011065 0.19608334 0.15397325 -0.45846778 0.2284477
00000000: 1170 743e b3fb 10be da5c a5bd 17a7 763e
00000010: b58c 8dbe 4f1d c53e 2e41 543f 260d 573e
00000020: 051c 4a3d d467 853c fcc3 173e fa1a fb3c
00000030: 4ae4 243e f4d0 f2bd 7605 d3bc 70df 32bd
00000040: 9d28 b23d afa6 afbd e3e9 d33e 7356 063e
00000050: 373e 16bd b18a c8be d573 19be 2c58 73be
00000060: 9f9e 2ebe a26e 5f3c 687a 933e 9ade 853e
00000070: 6c61 80be 3161 873e cf34 293e f5fc 693e
00000080: 29e3 9e3e be66 c1be f932 ecbe eb6f 72be
00000090: 7134 d23e eed8 20bc cb9b 583e 97ed 73be
000000a0: 4526 ef3e 8eb7 0abe de7e c33e 190b 563c
000000b0: d130 86be 21c5 6a3e bc49 39bf ead5 bcbe
000000c0: 4258 34bc cde3 b7bd 754c ecbc 9def 6dbd
000000d0: 4b6c 923e 2cd7 51be 2ba9 f33e 46df c13e
000000e0: c2fe 393d b038 88be cc5a bb3e 478e a63e
000000f0: ea5c 293d 9007 fa3e 5789 513e 1d89 993e
00000100: 9af6 333a 07ec 8abd c675 773e b470 553e
00000110: e79e b7be 91e1 9abe 78d5 273f 071b 76be
00000120: dc9e 843e 2f29 5fbd a139 0f3e 73a1 c43d
00000130: 12ca 483e 2aab 1d3e 4abc eabe 32ee 693e

linear1.bias f4 [20]
-0.3198042 -0.22375011 0.055500384 -0.06058677 0.25214875 -0.23806998 -0.45479724 0.6246492
-0.045250922 0.2913172 0.18045972 -0.27829465 0.007033489 0.08040765 -0.27583468 0.3864816
0.6726757 0.27030057 -0.25494725 -0.18727753
00000000: 60bd a3be c01e 65be 5f54 633d d529 78bd
00000010: a419 813e 9ec8 73be 2fdb e8be 03e9 1f3f
00000020: 0859 39bd 8727 953e 6fca 383e a37c 8ebe
00000030: 2f79 e63b c4ac a43d 343a 8dbe ebe0 c53e
00000040: 7a34 2c3f d664 8a3e 7288 82be aec5 3fbe

linear2.weight f4 [1, 20]
0.18112901 -0.12378985 0.10062137 0.071836546 -0.15966825 -0.26639393 0.20606944 -0.05526268
0.12678784 0.02795979 0.051889587 0.14381097 0.27869767 -0.16777886 -0.019116929 0.1642277
0.42401624 0.116166435 -0.17796771 -0.167427
00000000: e279 393e 8885 fdbd 9412 ce3d 0a1f 933d
00000010: 1380 23be c964 88be de03 533e 1f5b 62bd
00000020: acd4 013e ee0b e53c 2d8a 543d 2f43 133e
00000030: 76b1 8e3e 39ce 2bbe 1b9b 9cbc 4e2b 283e
00000040: a818 d93e abe8 ed3d 2b3d 36be fc71 2bbe
