unsorted/model_v2.pth (torch, 2584 bytes, 3 tensors)

linear1.weight f4 [20, 4]
000000 da 25 76 3e 06 3e 13 be 08 c2 c3 bd ce ae 75 3e
       0.24037877 -0.14379129 -0.09558493 0.23992464
000010 04 0a f4 be d0 5e bd 3e 99 75 6b 3e d4 ad 01 3f
       -0.4766389 0.369864 0.22994079 0.50655866
000020 2a 5b 55 3d 5b fa 5e 3c e5 dc 0d 3e d8 e3 e4 3c
       0.052088894 0.013609494 0.13853796 0.027940676
000030 d7 07 29 3e 59 23 fb bd 34 39 19 bd b4 9c 2d bd
       0.16506897 -0.122626014 -0.03740807 -0.042385772
000040 fe 8d b6 3d 79 77 b0 bd f9 6f dd 3e 52 5c 16 3e
       0.089138016 -0.086165376 0.4324949 0.14683655
000050 e8 e0 12 bd 90 8f cb be 79 27 87 bd 76 cf 36 be
       -0.03585902 -0.39757967 -0.06599326 -0.17852578
000060 9f 9e 2e be a2 6e 5f 3c 68 7a 93 3e 9a de 85 3e
       -0.17052697 0.013637217 0.28804326 0.26146394
000070 17 c2 42 be 14 64 46 3e 5f b2 0f 3f 1a 41 43 3f
       -0.19019352 0.19374114 0.5613155 0.7627121
000080 19 19 a0 3e 0a d2 c2 be 2e 3c f3 be 2a b9 72 be
       0.31269148 -0.38050872 -0.4750685 -0.23703447
000090 0c 79 d7 3e bb 94 96 bc 88 fa 56 3e 30 30 6f be
       0.4208454 -0.018381467 0.20994008 -0.23358226
0000a0 50 1a f2 3e d5 70 10 be e6 20 bf 3e da 6a fc 3b
       0.472857 -0.14105542 0.37329787 0.0077031674
0000b0 4e 0b 49 be 63 97 83 3e 65 c9 d5 be 5a 44 23 3d
       -0.19633219 0.25701436 -0.41755214 0.039860107
0000c0 b4 88 37 bc 58 07 b7 bd 07 07 46 bd 35 19 f3 bd
       -0.011202026 -0.089369476 -0.048346546 -0.11870042
0000d0 3d 74 93 3e 87 e0 52 be d5 66 fc 3e 9b 4b c8 3e
       0.2879962 -0.20593463 0.49297205 0.39120182
0000e0 76 3b eb 3c 9b 12 b1 be 86 cd 92 3e 85 f8 2a 3e
       0.028714877 -0.34584507 0.28672427 0.16696365
0000f0 1a a0 11 3d 03 f1 ee 3e 70 57 cc 3e 25 b5 fa 3e
       0.035553075 0.46668252 0.3991046 0.48966327
000100 3b 90 0c b8 55 f4 a2 bd 5b 20 8f 3e 7a 03 7d 3e
       -3.3512926e-05 -0.07956759 0.27954373 0.24708357
000110 2e 88 c2 be 39 cd ac be 83 37 d4 3e d4 04 46 3c
       -0.37994522 -0.33750322 0.41448602 0.012086112
000120 4f 9a 85 3e 85 7e 61 bd ff 47 23 3e 6f 37 ce 3d
       0.2609429 -0.0550523 0.15945433 0.10069167
000130 2b a0 4a 3e 70 63 1e 3e f7 90 ef be 00 97 75 3e
       0.19787662 0.1546762 -0.46790287 0.23983383

linear1.bias f4 [20]
000000 aa 42 af be 38 c9 ca be 54 71 1e 3d 2d 25 a2 bd
       -0.34230548 -0.39606643 0.038682297 -0.07917247
000010 d5 e5 8e 3e 85 d4 60 be 2f db e8 be 0c ca 11 3f
       0.27909723 -0.2195607 -0.45479724 0.56948924
000020 a9 d4 87 bd 9b 5a 91 3e bd 24 2a 3e 1e f1 98 be
       -0.066323586 0.2838944 0.16615577 -0.29871458
000030 87 fd 2b 3e 2b b6 d7 3d d2 6b b6 be 5f 19 98 3e
       0.16795932 0.10532793 -0.35629135 0.29706857
000040 34 a7 17 3f 29 6e 7a 3e a0 24 68 be ee d7 2d be
       0.59239507 0.24456085 -0.22670221 -0.16976902

linear2.weight f4 [1, 20]
000000 70 1e 3b 3e 38 6a 03 be f3 67 da 3d a7 34 97 3d
       0.1827333 -0.12833488 0.10664358 0.073830895
000010 d2 1f 28 be c0 dd 91 be de 03 53 3e 99 f8 99 bd
       -0.16418388 -0.28489494 0.20606944 -0.07518119
000020 57 ff 02 3e af 45 ea 3c f4 02 57 3d fb fe 02 3e
       0.12792717 0.02859768 0.05249305 0.1279258
000030 13 31 b9 3e 0c 2b 2d be dd b6 34 bd a5 35 37 3e
       0.36170253 -0.16910952 -0.044119705 0.17891558
000040 d5 01 f6 3e d9 b7 55 3e ef 8d 37 be 3e 6c 2d be
       0.48048273 0.20870914 -0.17925237 -0.16935822
